…
Como hemos mencionado anteriormente, vamos a calcular también en este caso el número total de parámetros de nuestro modelo. Este se obtiene haciendo el siguiente cálculo:

 $$ totalPesos = uH * 3072 + uH  + uH * uH2 + uH2 + uH3 * uH2 
 + uH3 + uH3 * 10 +10$$

Por tanto tenemos un total de $3738506$ parámetros que entrenar, como se puede observar ejecutando el comando *summary* sobre el modelo:
```r
Layer (type)                    Output Shape                     Param #                
=======================================================================================
dense_1 (Dense)                 (None, 1024)                     3146752                
_______________________________________________________________________________________
dense_2 (Dense)                 (None, 512)                      524800                 
_______________________________________________________________________________________
dropout_1 (Dropout)             (None, 512)                      0                      
_______________________________________________________________________________________
dense_3 (Dense                  (None, 128)                      65664                  
_______________________________________________________________________________________
dropout_2                       (None, 128)                      0                      
_______________________________________________________________________________________
dense_4 (Dense)                 (None, 10)                       1290                   
_______________________________________________________________________________________
activation_1 (Activation)       (None, 10)                       0                      
=======================================================================================
Total params: 3,738,506
Trainable params: 3,738,506
Non-trainable params: 0


```

Una vez fijados los hiperparámetros, se procede a entrenar en modelo con todo el conjunto de entrenamiento. Hemos optado por utilizar todos los ejemplares de cifar10.

```r
cifar10 <- dataset_cifar10()
x_train <- cifar10$train$x
…
El número total de parámetros se obtiene fácilmente haciendo el siguiente cálculo:

$$ totalPesos1Capa=9*3*64+64$$
$$ totalPesos2Capa=64*9*64+64$$
$$ totalPesos3Capa=64*16*96+96$$
$$ totalPesos4Capa=96*16*96+96$$
$$ totalPesosMlp1=96*16*128+128$$
$$ totalPesosNodosSalida=128*10+10$$


Por tanto tenemos un total de $482698$ parámetros que entrenar, lo que se puede confirmar con el siguiente *summary*:

```r
Layer (type)                       Output Shape                     Param #                
======================================================================================
conv2d_5 (Conv2D)                 (None, 30, 30, 64)                1792                   
______________________________________________________________________________________
conv2d_6 (Conv2D)                 (None, 28, 28, 64)                36928                  
______________________________________________________________________________________
max_pooling2d_3 (MaxPooling2D)    (None, 14, 14, 64)                0                      
______________________________________________________________________________________
dropout_7 (Dropout)               (None, 14, 14, 64)                0                      
______________________________________________________________________________________
conv2d_7 (Conv2D)                 (None, 11, 11, 96)                98400                  
______________________________________________________________________________________
dropout_8 (Dropout)               (None, 11, 11, 96)                0                      
______________________________________________________________________________________
conv2d_8 (Conv2D)                 (None, 8, 8, 96)                  147552                 
______________________________________________________________________________________
max_pooling2d_4 (MaxPooling2D)    (None, 4, 4, 96)                  0                      
______________________________________________________________________________________
dropout_9 (Dropout)               (None, 4, 4, 96)                  0                      
______________________________________________________________________________________
flatten_2 (Flatten)               (None, 1536)                      0                      
______________________________________________________________________________________
dense_7 (Dense)                   (None, 128)                       196736                 
______________________________________________________________________________________
dropout_10 (Dropout)              (None, 128)                       0                      
______________________________________________________________________________________
dense_8 (Dense)                   (None, 10)                        1290                   
======================================================================================
Total params: 482,698
Trainable params: 482,698
Non-trainable params: 0

```

Una vez fijados los hiperparámetros, se procede a entrenar en modelo con todo el conjunto de entrenamiento. Hemos optado por utilizar todos los ejemplares de cifar10.

```r
cifar10 <- dataset_cifar10()
x_train <- cifar10$train$x
…
